code/cnn_net.pth (torch, 230983 bytes, 18 tensors)

weight f4 [16, 3, 64]
000000 b5 c5 2f bd 6a 40 11 bc 1e 4c b7 3c 85 14 1f 3d
       -0.042913157 -0.008865455 0.022375163 0.03883793
000010 d2 9e 01 bd 01 b6 0d 3c b0 29 9b 3d 27 23 5a 3d
       -0.031645603 0.00864935 0.07576311 0.05325618
000020 d3 3c b9 3c 62 c8 ba bd 4b cf b3 bd f4 f3 3d 3d
       0.022612011 -0.09120251 -0.08779772 0.04637523
000030 2f 7a 84 3d 7a e7 c9 bc 98 5a 94 3c 18 a7 26 3d
       0.06468617 -0.02464651 0.018109605 0.040686697
000040 be fd 45 3d 22 07 e8 3c 5c cd 32 3c d2 77 b2 bd
       0.04833769 0.028323714 0.010913219 -0.0871426
000050 51 6a 50 bc eb 9f 3a 3c 39 d3 85 3d 6c ac 0f bc
       -0.01272066 0.0113906665 0.06534428 -0.008769136
000060 58 73 06 3d 5c 9b ac 3c 5e 46 25 3d d6 5c dd 3a
       0.032824844 0.021070175 0.04035031 0.0016888629
000070 10 10 3c bc ec 3f f2 bc d5 54 29 bc 86 40 8d 3d
       -0.011478439 -0.029571496 -0.010335167 0.068970725
000080 61 86 7e bc d9 f3 9c bc 93 99 90 3c a8 ab 0b 3d
       -0.015534968 -0.019159244 0.017651355 0.03409925
000090 dc dd 4a bd d8 88 fa 3b aa 42 73 bd fb f1 56 bd
       -0.049527988 0.0076457076 -0.059389748 -0.052476864
0000a0 28 24 85 3d 4e e6 0e 3c 8f cf 94 3d 97 1d e1 3c
       0.06501037 0.008721901 0.07266151 0.02747993
0000b0 0f c7 f4 bc d6 99 10 3d 24 0f 61 bb d5 d2 48 bd
       -0.029880075 0.03530296 -0.00343413 -0.04902919
0000c0 53 12 14 3d fd 1d 04 bc f7 90 25 3d b2 c4 04 3d
       0.036150288 -0.00806379 0.040421452 0.032414146
0000d0 ae 63 27 bd 11 53 0d 3a 32 fc c5 3b 7f a4 28 3d
       -0.040866546 0.0005391101 0.006042027 0.0411725
0000e0 48 3b 8c bb d2 9a 0d bc 68 51 05 3d c6 a6 8c 3d
       -0.004279528 -0.008642869 0.03254834 0.06867747
0000f0 46 d5 98 3d 0e c1 9f 3d bd 74 00 3c 66 19 1d bc
       0.07462554 0.07800494 0.007840333 -0.009588575
000100 eb dd 58 3d cd a0 ed 3d f3 ec 99 3d b1 cd 12 3c
       0.052946012 0.11602936 0.075158976 0.008960173
000110 12 3c 29 bb 46 06 67 bd fe de af bc 4e 00 fe bd
       -0.0025823158 -0.056402467 -0.021468636 -0.12402402
000120 31 0e 98 bd c6 9b bc ba f8 33 b9 3c a1 53 d5 3d
       -0.07424582 -0.0014389686 0.022607788 0.104163416
000130 6f db af 3a 93 46 b2 bc e3 72 fe bc bf c7 9c bd
       0.0013416837 -0.021762168 -0.031060642 -0.07655286
000140 e8 e3 54 bd de cf c3 bd a5 68 8f 3d 16 ea ae 3d
       -0.05197516 -0.09561132 0.07002381 0.08540742
000150 8b 08 e9 3d db a2 d0 3d c8 61 b5 bd 89 09 07 be
       0.113785826 0.10187312 -0.08856541 -0.13187231
000160 53 f7 0f be ad 73 ae bd a6 dc 42 3c 03 18 82 3c
       -0.1405919 -0.08518157 0.011893427 0.01588059
000170 80 3b 22 3d 40 e8 ba 3d c9 88 9c 3d 1c de df 3b
       0.039607525 0.091263294 0.07643277 0.0068318974
000180 c8 05 c6 bd 7a ef d7 bd 52 32 c8 bd 46 29 03 bc
       -0.096690714 -0.105437234 -0.09775223 -0.008005446
000190 ac 02 9b bc 77 05 dc 3d 08 89 d6 3d 8a 03 e4 3d
       -0.018922172 0.1074323 0.104753554 0.111334875
0001a0 20 18 c7 bc 92 fa b3 bd cc d0 03 be 44 63 ef bc
       -0.024303496 -0.08788027 -0.12872618 -0.029222138
0001b0 18 ba 69 3d 20 48 ab 3d c0 72 d7 3d 6f 6b 6b 3c
       0.05706224 0.08363366 0.10519934 0.014368876
0001c0 67 9a a4 bc 00 8e 8d bd e4 b7 18 bd cd 3a 41 bd
       -0.020093156 -0.0691185 -0.037284747 -0.047175217
0001d0 73 2c 05 bd 33 00 17 bd 72 d2 60 3d 7f 37 af 3c
       -0.032513093 -0.036865424 0.054888196 0.021388767
0001e0 0d ca 51 3d d8 e8 22 bb 08 d7 bf ba fa 44 38 bc
       0.05121808 -0.0024858024 -0.0014636228 -0.011246914
0001f0 bf 7c 5f bd 70 fb da bc 44 2d 65 3d 93 78 83 3d
       -0.054562327 -0.026731223 0.05595137 0.06419482
000200 0a e9 89 bd 75 88 af 3d 8f ce 97 3d d5 fd b5 3d
       -0.06733902 0.08570949 0.07412445 0.08886305
000210 93 d6 09 bd 89 29 ff bc 0e 0c c9 bd 4b 0e c3 bc
       -0.0336519 -0.031147735 -0.098167524 -0.023810526
000220 7b c8 b1 3c 5a 1a 19 bd d8 83 e3 3a 47 69 a9 3d
       0.021702042 -0.037378646 0.0017358018 0.08272033
000230 b0 45 ae 3d fb 44 af 3c cc 7b 74 bd cf 40 c9 bd
       0.085093856 0.021395197 -0.059688374 -0.098268144
000240 06 95 67 3c 8b d0 a1 bd f5 79 7d 3d c5 ae ca 3d
       0.014134651 -0.079011045 0.061883885 0.09896616
000250 a2 22 4a 3d d1 c8 00 3e d1 e9 e3 3d 0a 7b eb bc
       0.049349435 0.12576605 0.11128581 -0.028745193
000260 04 b0 a6 bd 02 29 af bb 2f 25 47 3d 8c 13 81 3d
       -0.08139041 -0.0053454647 0.048619445 0.063025564
000270 98 01 e3 3c e4 05 ed 3c 42 b3 7b 3d c5 c9 01 bd
       0.02771072 0.028933473 0.06145025 -0.031686563
000280 5c c5 a8 bd f4 3b 9c bd 12 1c 37 3b 9c 93 33 3d
       -0.08240768 -0.07628623 0.0027940315 0.043841943
000290 a4 68 a3 bc f6 45 ed bc d0 a4 96 3c bd 7c 06 3d
       -0.019947357 -0.028964024 0.018389136 0.032833803
0002a0 79 bd 1f bc a2 0b 0d be 08 97 3d bc 57 4e d2 bc
       -0.009749764 -0.13773969 -0.011571653 -0.025672121
0002b0 17 84 43 bc 15 45 66 bd 40 e3 c1 3d 89 16 e6 3d
       -0.011933348 -0.056218226 0.094671726 0.11234767
0002c0 7f 20 e5 3a 13 e6 97 bd d8 25 71 bd 4a 3d 18 3d
       0.0017480998 -0.0741693 -0.05887398 0.037167825
0002d0 e8 1a 31 bd 21 0d 54 3d b4 58 12 3d b1 8e 46 3d
       -0.04323855 0.051770333 0.035729125 0.048475925
0002e0 50 4b f7 3d 41 1e 1a bd 79 91 a9 3a 1d b1 bf bd
       0.120749116 -0.03762651 0.0012937031 -0.093599536
0002f0 2e f6 12 bd f4 5b 1d bc 22 c1 9f bd a2 22 9f 3c
       -0.035879306 -0.009604443 -0.07800509 0.019425694
000300 9a 83 aa bd 92 9d 76 3d b6 2e 87 3d 53 0b 47 3c
       -0.08325882 0.060208865 0.06600706 0.012148696
000310 11 d0 8f bc 06 b5 46 bc 43 e4 40 3d 7c 8d 4a 3c
       -0.017555268 -0.01212812 0.047092687 0.012362834
000320 c7 fe 82 3c e3 50 88 bd 8c ba a8 3c 1c 60 f1 3d
       0.015990628 -0.06656053 0.020596765 0.117859095
000330 fe 39 ec 3c d3 7e ab bc 72 03 99 bc 88 17 aa bc
       0.028836247 -0.020934498 -0.0186784 -0.020763174
000340 23 33 f6 3d e7 f8 c7 3b a7 6c ec bd 89 55 a4 bd
       0.12021472 0.0061026695 -0.11544161 -0.08024127
000350 4d b9 d2 3d 64 81 34 3d 19 3e 13 bd 75 59 d8 bd
       0.102892496 0.04406871 -0.035947893 -0.105639376
000360 b1 3e 25 3d 0f 3e 24 bc 2d 90 4a 3d a6 5a 91 bd
       0.04034299 -0.010024562 0.049453903 -0.07097368
000370 f7 fc d9 3c b7 f0 54 bc 67 e1 80 bb f8 b9 26 bd
       0.02660988 -0.012996844 -0.00393312 -0.040704697
000380 11 0a a1 bd c3 55 a1 bb 3a f1 32 3d bb c9 32 3d
       -0.07863248 -0.0049235537 0.043687083 0.043649416
000390 30 0e e6 bd 25 db 49 bc af 7f 50 39 e0 fb 72 bd
       -0.11233175 -0.0123203145 0.00019883992 -0.059322238
0003a0 b3 dc 91 bd 48 d0 82 3d 6c a8 23 3d e5 0f 2c 3c
       -0.07122173 0.06387383 0.03995554 0.010501836
0003b0 63 f2 9b bc a9 c8 89 bc 4c 27 86 bd d5 19 46 3d
       -0.019036477 -0.016819315 -0.06550464 0.04836448
0003c0 ec 8b a9 3c c0 50 ef bd b1 a8 8c 3d 91 2a 92 3d
       0.020696603 -0.11685324 0.06868113 0.07137025
0003d0 35 e3 c2 bb 1d c4 d9 bd 1b 9f 89 bc 76 ea 9b 3d
       -0.0059474953 -0.10633109 -0.0167995 0.07613079
0003e0 73 61 01 3d 2c 1c 4a bd 36 08 56 3c a6 9f f1 bc
       0.031587075 -0.049343273 0.013063481 -0.029495072
0003f0 a3 e7 70 3d 52 5f ae 3b 85 c0 d9 bc 0a 1c 6e bd
       0.058814656 0.0053214217 -0.026581058 -0.05813221

bias f4 [16]
000000 b6 00 8a bd 9b 0d 5f bc f8 e8 09 bd 00 bd 21 3d
       -0.06738417 -0.013614084 -0.033669442 0.039486885
000010 b9 a4 a9 bd e6 73 d7 bc d0 79 04 3d 47 d9 ed 3b
       -0.082833715 -0.026300382 0.032342732 0.0072585675
000020 a7 ed a5 bd 68 8d 94 3b 2d 37 0c 3d 91 a7 c6 bc
       -0.08101969 0.0045334585 0.034232307 -0.024249824
000030 3c f8 ae 3d a1 72 af bd 12 09 3c 3d e2 f7 4e 3d
       0.08543441 -0.085667856 0.045907088 0.05052937

weight f4 [16]
000000 27 bb 83 3f 21 8c 81 3f d7 38 81 3f db 14 81 3f
       1.0291489 1.0120889 1.0095471 1.008449
000010 b8 af 80 3f 67 67 82 3f cd e4 80 3f 26 d1 81 3f
       1.0053625 1.0187806 1.0069824 1.0141952
000020 d7 18 83 3f 75 a7 82 3f 4d 58 86 3f b4 b2 7d 3f
       1.0241956 1.0207354 1.0495697 0.99100804
000030 ee fb 81 3f cb 94 80 3f 7e 1c 81 3f 42 a3 82 3f
       1.0155008 1.0045408 1.008682 1.0206072

bias f4 [16]
000000 c9 99 ac bd 57 a9 e1 bd a5 00 0a be e0 f0 fa bd
       -0.0842777 -0.11018627 -0.13476808 -0.122529745
000010 6a 67 04 bd fb c1 63 3d 87 d6 d8 bd fd df d7 3c
       -0.032325186 0.055604916 -0.10587793 0.026351923
000020 45 53 05 be 36 c1 17 bd 18 f6 21 3d c9 79 15 be
       -0.13020046 -0.037049495 0.039541334 -0.14597239
000030 f9 84 28 bd bc 65 00 be 22 11 ad bd 64 b4 e3 bd
       -0.041142438 -0.12538809 -0.084505334 -0.11118391

running_mean f4 [16]
000000 7d f0 87 bd a2 5d d1 bc 98 e5 4f bd fc 11 29 3d
       -0.066376664 -0.025557343 -0.050756067 0.041276917
000010 a2 ac b1 bd fd 89 ae bc 0b 21 c4 3c 00 9b f4 bb
       -0.08675505 -0.021306032 0.023941537 -0.0074647665
000020 ac 49 bb bd 2d 54 69 bc 5a dd 2e 3d b8 bb 2a bd
       -0.09144911 -0.0142412605 0.042691566 -0.04168293
000030 d6 46 9d 3d db ab d8 bd 05 19 df 3c b1 6a e2 3c
       0.076795265 -0.10579654 0.02723361 0.027638765

running_var f4 [16]
000000 a0 cb 31 3d c0 a0 9d 3d dd ed d0 3d 98 b3 e0 3d
       0.043407083 0.07696676 0.10201619 0.10971755
000010 71 90 b3 3d 1a 02 e6 3d 85 45 8f 3d cb 4a e8 3d
       0.087677844 0.112308696 0.06995682 0.113423906
000020 41 cc 80 3d 9e b0 9f 3d 06 de 37 3d fb e3 b6 3d
       0.06288958 0.07797359 0.044889472 0.089302026
000030 2e 6b 88 3d 35 b8 ab 3d 67 bd 96 3d bb e9 ba 3d
       0.06661068 0.08384744 0.073603444 0.09126612

weight f4 [32, 16, 16]
000000 c3 a6 76 3c e5 06 9b bd db 56 b5 bd 34 b6 a3 bb
       0.0150544075 -0.075696744 -0.08854457 -0.0049960855
000010 e0 43 b5 bc 8b 35 b8 bb 97 db 33 3d 5d de e0 3c
       -0.022127092 -0.005621617 0.04391059 0.027449781
000020 58 92 b9 bb b7 a2 9b bb a2 b7 9c bd b7 64 13 bb
       -0.0056631975 -0.0047496217 -0.07652213 -0.002249045
000030 fa 8a f4 3c dd 2f 46 bd f8 39 1b 3c 85 65 fb bc
       0.029851425 -0.04838549 0.00947427 -0.030688057
000040 bd 1c b0 3b 8c 06 f1 3b 53 2b ee bc cc 9d 16 bd
       0.0053745196 0.007355517 -0.029073393 -0.03677158
000050 89 ae a8 3c 29 0d 7d bd b3 9a a3 bd ca ba 5b 3d
       0.020591037 -0.06178013 -0.07988491 0.053644933
000060 9d 8a 0c 3d 1f 7d 91 bd 4a 01 c6 bc ab bd 64 bc
       0.03431188 -0.07103943 -0.024170537 -0.013961236
000070 bd 51 2c bd 8d 9d d3 3b 30 81 8a 3c 41 c7 c9 bc
       -0.04207014 0.0064579905 0.016907305 -0.024631144
000080 47 05 b1 3d 21 b6 80 bd 4f 69 5a bd 6e ca d1 bc
       0.08643585 -0.06284738 -0.053323086 -0.025609221
000090 c5 6e 92 3d 8e a6 80 bd d2 e1 00 bd 46 fe b8 bc
       0.07150034 -0.06281768 -0.03146536 -0.022582185
0000a0 7a 0f 59 3c 87 6d 10 3d 0f ac 52 bd e9 09 9b bc
       0.013248319 0.035260703 -0.05143362 -0.018925624
0000b0 4d 2c 37 bd af 5a 84 bc b2 c6 4b bd 4c e5 62 3d
       -0.044719983 -0.016156523 -0.049750037 0.055394456
0000c0 f2 27 7b bb e9 6d 7c bd cb 1a 8a bd f0 93 c2 bc
       -0.003832337 -0.061628256 -0.067433916 -0.023752183
0000d0 ca a4 5f 3d 40 3c 30 bd 74 fd 82 bc 7a ae c3 3d
       0.054600514 -0.04302621 -0.015989996 0.09554763
0000e0 cc a9 5c 3d 9a 89 60 3c 41 b3 25 3d 71 14 88 bb
       0.05387287 0.013704682 0.040454153 -0.0041528274
0000f0 2e e4 3a bd 60 93 94 3c 83 89 8e 3d 8d b3 11 3d
       -0.045627765 0.01813668 0.06959822 0.035571624
000100 75 3e 2e 3d af ae 63 3c d1 0c 01 bd 7a ed 17 3d
       0.042540032 0.013896628 -0.031506363 0.03709171
000110 69 91 74 bb be 66 1e 3d be f9 78 3c 4c 0d 47 3d
       -0.0037318117 0.0386722 0.015196262 0.048596665
000120 92 d7 16 3d bc 03 82 bc ef f7 16 bc a1 4b 13 bc
       0.036826678 -0.015870921 -0.009214385 -0.008990199
000130 f9 6b 5c bc 06 3d 15 3d 22 24 1d 3d 98 8d 22 3c
       -0.013453477 0.03643515 0.038364537 0.009921454
000140 cf 86 50 3d 83 f3 5c 3d 73 86 59 bd 7f 65 67 bd
       0.050909813 0.05394317 -0.053106736 -0.05649328
000150 69 20 14 3d 59 bb 5d 3c 83 08 aa 3c e3 47 f3 3a
       0.03616372 0.013533437 0.020756012 0.0018560853
000160 62 d8 92 3d f2 52 15 bc 95 15 79 3c 0a 30 f1 bc
       0.07170178 -0.009114014 0.015202899 -0.029441852
000170 d4 63 d9 bc 92 1e 64 bd 6e 9d 6f 3d 42 d9 90 3a
       -0.02653686 -0.055693217 0.058499746 0.0011051076
000180 11 4b 41 3d 8f 85 b7 3b 94 48 5c bc f3 c5 7e bd
       0.04719073 0.005600638 -0.013445038 -0.062200498
000190 40 39 14 3c dd 93 df 3b 51 4d b0 bd 35 62 7e 38
       0.009046853 0.0068230466 -0.08608497 6.064978e-05
0001a0 ef f8 a2 3c 1d 3d f8 bc 38 c3 97 bc 8c 82 71 3d
       0.019894091 -0.030302579 -0.018525705 0.05896239
0001b0 15 33 1b 3c 9b 1c 19 bd e9 e0 eb bc a1 7a b8 bc
       0.009472628 -0.037380796 -0.028793769 -0.022519412
0001c0 5b 44 c3 bc b2 6b 33 3d c9 d2 38 3c 79 43 0a 3c
       -0.023836305 0.043803878 0.011280724 0.008438938
0001d0 17 d8 80 3d 49 f1 d7 bc be f5 17 3d 96 2b 90 3d
       0.06291216 -0.02636017 0.037099592 0.07039563
0001e0 0d 11 6d 3c a5 1f 8c bc 80 75 50 3d 9d 19 ac 3d
       0.014469397 -0.017104933 0.050893307 0.08403323
0001f0 4f 2b 3f 3d 7a ff f6 bc 8a 3c 44 3d cd 71 25 3c
       0.04667216 -0.030151118 0.047909297 0.010097933
000200 54 54 12 bd a1 ed 23 3d 94 d2 9b bd cb 6c a9 bd
       -0.035724953 0.040021542 -0.07608524 -0.08272704
000210 79 08 0a bc 27 16 81 bd 7b c9 04 bd e1 1d ae 3c
       -0.008424872 -0.06303053 -0.03241871 0.021254482
000220 31 cc 34 3c 96 e7 66 bd a4 61 5f bd 5e 16 c1 3b
       0.011035011 -0.0563732 -0.054536477 0.005892559
000230 2e 07 24 3d 79 78 31 bd a2 e8 5e bd 3c 72 97 3d
       0.04004591 -0.043327782 -0.054421075 0.07394835
000240 a1 f0 9c 3d 31 eb 44 3d ac eb a0 bb c8 5b 11 bd
       0.07663084 0.04807586 -0.004910907 -0.03548792
000250 62 45 c7 3c f5 12 d1 bc 8d d4 99 3c ff 51 9d bc
       0.024325076 -0.025521735 0.01877811 -0.019204138
000260 a8 86 e7 3d 0b 05 62 3d cc d3 eb 3a 29 75 4e 3d
       0.113049805 0.05518059 0.0017992198 0.0504047
000270 1a c2 9c 3d e1 69 04 bd 02 e5 5f 3d 08 12 aa 3c
       0.076542094 -0.032327536 0.05466176 0.020760551
000280 0d 75 52 3c e8 bd 7f bd 06 bf a0 bc 67 d4 70 bd
       0.01284529 -0.062436968 -0.019622337 -0.058796313
000290 77 5c be bc f8 13 36 3b 61 10 04 bd d4 19 d4 3c
       -0.02323745 0.0027782898 -0.032242183 0.025891222
0002a0 1c 0d 9b bc 4f c0 51 bd b4 0c 8a bd 90 ef 20 3d
       -0.01892715 -0.05120879 -0.06740704 0.039290965
0002b0 e1 ec f2 bc 56 42 d6 bc 78 54 8b bd 6c 5d 16 3d
       -0.029653968 -0.026154678 -0.068032205 0.036710188
0002c0 2a f0 69 3b f5 d2 21 bd 79 78 da bd 9d f6 3a 3c
       0.0035696127 -0.039507825 -0.106675096 0.011411336
0002d0 38 dd 4f 3d 9d 72 3c bd a2 e7 12 bd 43 af 1a bd
       0.05074808 -0.04600774 -0.035865434 -0.0377648
0002e0 0c 5c 3e bd af 55 b2 bd 6d 7b f5 bc e7 6c 53 3d
       -0.0464745 -0.08707749 -0.02996608 0.05161753
0002f0 c3 64 b0 bd ac 03 2d bc 2a 6a 94 bc 5d 09 58 3c
       -0.08612969 -0.0105599575 -0.01811703 0.013185826
000300 0c b5 d8 bc 1b 90 9b 3d cb dd a9 bc 3d 56 0b 3b
       -0.026453517 0.07595845 -0.020735642 0.0021261119
000310 b0 fe a4 3d 11 f0 9f 3d dc 3d 03 3c d6 af 84 3d
       0.0805639 0.07809461 0.008010354 0.064788505
000320 86 a0 46 3d f2 1b 4e 3c 3a 60 79 3c da b9 8e 3d
       0.04849293 0.012579905 0.015220696 0.06969042
000330 2b ce 8b 3d 49 fb f3 3c e7 86 01 3d e4 2f a6 ba
       0.06826433 0.029782908 0.031622794 -0.0012679067
000340 b5 8a 01 3d 8f 7f f1 ba 3c 78 28 bd 4e 80 83 bd
       0.031626422 -0.0018424856 -0.04113029 -0.064209566
000350 3c ed 2e 3d 4c e5 58 bd 5a 29 74 ba 29 69 0a bc
       0.042706713 -0.05295305 -0.0009314023 -0.008447924
000360 74 2b 31 3d 9c b2 7a bd 0f 0c 02 bd 68 6c 35 3d
       0.04325433 -0.06120549 -0.03174978 0.044292837
000370 82 43 8f 3c 36 7a b5 bc 72 58 9a 3c f6 d3 01 3d
       0.017488245 -0.022153001 0.018841002 0.031696282
000380 c7 f3 83 3a 5d b1 19 3d 42 c8 6e bd 1c 23 94 3d
       0.0010067158 0.037522662 -0.05829645 0.07233259
000390 72 9d f1 bc 39 b0 2a bd 17 8c f1 ba b2 85 48 3d
       -0.029494021 -0.041671965 -0.0018428591 0.048955627
0003a0 24 f2 8f 3d ca f1 67 3d 4b a9 50 3c 6c d0 bf 3d
       0.070286065 0.056627072 0.012735675 0.09365925
0003b0 77 08 1d bc 64 cd 05 bd b3 5d f7 b9 2d 27 23 3c
       -0.009584538 -0.03266658 -0.00047181323 0.009958071
0003c0 13 a9 83 bc 35 5a e2 bc 02 10 19 3d 5d 7a 88 bc
       -0.016071832 -0.027630905 0.037368782 -0.01665991
0003d0 0e 9c a1 3c 9b 7e 80 3d 2f b6 3b 3d df 3d 01 3d
       0.019727733 0.06274148 0.04582804 0.031553145
0003e0 94 87 f5 3c 14 78 22 3c be bd 53 bd d4 b4 8a 3d
       0.029971875 0.009916324 -0.051694624 0.067727715
0003f0 8a 84 4a bd bb d4 cb 3c 74 f7 0a 3d 87 12 6f bc
       -0.049442805 0.024881711 0.033927396 -0.01459182

bias f4 [32]
000000 23 28 bb 3b e7 ce 80 3c 81 d1 2b be 0e 75 03 be
       0.005711572 0.015723659 -0.16779138 -0.12837622
000010 d4 ea 80 bd b6 27 08 be d8 b5 09 be 36 80 32 be
       -0.0629479 -0.13296399 -0.13448274 -0.17431721
000020 4a dc e4 bd 97 6a bb 3d 33 7e 04 be ed d1 1e be
       -0.11174829 0.0915119 -0.12938766 -0.15509768
000030 a0 fc b4 bd 50 9f 06 be a1 0a 58 bd aa 9b 08 b9
       -0.08837247 -0.1314671 -0.05274451 -0.0001302796
000040 ad 93 1f 3d b5 81 b5 bd 4e 58 17 be 49 11 89 bd
       0.038959194 -0.0886263 -0.1477978 -0.0669275
000050 a1 83 c3 bd 15 e0 8d bd b9 3c 22 3e 89 dd 36 bd
       -0.095465906 -0.06927506 0.15843476 -0.044644866
000060 03 ea 11 3d 81 37 1b 3e ca 27 b2 bd 95 55 fb bd
       0.03562356 0.15157892 -0.086989954 -0.12272183
000070 df ed c2 bd f9 3c b8 3d 2a fa 0f 3e 27 19 87 bc
       -0.095180266 0.089960046 0.14060274 -0.016491486

weight f4 [48, 32, 8]
000000 ac 9d 4d bc f5 cb 94 3d 5b 8c 80 bc f8 27 24 3d
       -0.012549799 0.07265464 -0.015691927 0.04007718
000010 63 f1 54 3d 2e ec 08 3d 6a af c0 3d b6 2a 7d 3d
       0.051988017 0.033428364 0.094084576 0.06180831
000020 1f 0b 8e bd 06 85 30 bd ae 84 42 bd 15 f3 2b bd
       -0.06935715 -0.04309561 -0.047489814 -0.041979868
000030 de d5 d4 bd d5 30 8d bd 33 8a 60 bd 45 ea a9 bd
       -0.103923544 -0.068940796 -0.054819297 -0.082966365
000040 63 4f 85 3d bc 60 0b 3c be 65 5f 3d e4 d9 70 3d
       0.065092824 0.00850695 0.05454039 0.058801547
000050 81 9b 2a 3d c7 e5 20 bd a0 11 8f 3d 30 b2 9c 3c
       0.041652206 -0.039281633 0.069857836 0.019127935
000060 dc 0c bd bc 1b 72 28 3d ad b3 15 3d 3e 18 47 3d
       -0.02307742 0.041124444 0.036548305 0.048607104
000070 9a a7 1a bd c5 f4 17 3d 4a 4f 05 bd 65 52 0f 3d
       -0.037757494 0.037098665 -0.03254632 0.034990687
000080 9c 06 7a 3d 84 d7 62 3c be 6b 2c bc ef 70 17 3c
       0.06104146 0.013845328 -0.010523735 0.009243234
000090 c7 fd b2 3d 08 86 b5 bc 9f 48 7d bc 10 be 40 3d
       0.087398104 -0.022158638 -0.015459209 0.047056258
0000a0 9b 37 16 3d 1a d7 bb 3c b1 d4 b9 3c 49 dc 3a 3d
       0.036674123 0.022929717 0.022684427 0.045620237
0000b0 0a 90 11 bb e6 2d 4d 3d 9d f4 07 3c 7d 4c 02 3d
       -0.0022211098 0.0500926 0.008298066 0.031811226
0000c0 03 61 87 3d d4 cf c0 3d 69 d8 e6 3c 28 b0 c5 3a
       0.066103004 0.0941464 0.028179364 0.0015082406
0000d0 cc 59 72 3d b3 80 40 3d 2a b9 40 bc da de 57 3d
       0.05916767 0.046997737 -0.011762897 0.052702762
0000e0 37 45 9b 3d 45 97 cb 3d c6 0b 05 3d ac 1d 85 3b
       0.07581561 0.09940962 0.03248193 0.004062375
0000f0 66 73 25 3d ce 87 26 3d c2 7a 35 3d ea d6 a4 3b
       0.040393256 0.040656857 0.044306524 0.0050305026
000100 7b ba be 3d 05 87 8f 3b f9 70 b1 3d 6c 0b 90 3d
       0.09312912 0.0043801093 0.08664126 0.070334285
000110 da 05 e2 3b 87 71 e6 3c ae ca 8f 3d 89 3d 4c 3d
       0.00689767 0.028130306 0.0702108 0.049863372
000120 b4 39 dc 3b 41 c6 13 bd fb 15 ae 3c 5a 86 b6 ba
       0.006720746 -0.03607774 0.021250715 -0.0013925538
000130 61 cb 08 3d 10 a9 77 3c 3e 74 36 bd dc 2a b9 bb
       0.033397082 0.015115991 -0.04454445 -0.005650861
000140 00 74 23 3c d9 0d 5c 3b 55 5f 89 3b 89 19 e2 3c
       0.009976387 0.003357759 0.0041922727 0.027600067
000150 00 d1 9b 3d 46 b2 88 3d dd ad 36 3d 9f ac ae 3d
       0.07608223 0.06674628 0.044599403 0.085290186
000160 d5 7d c6 3d 98 cd 3b bc d4 ae 91 3d 04 95 6d 3d
       0.09691969 -0.011462592 0.07113424 0.05800344
000170 79 f5 b9 3d 7f 1b 5b 3d 68 55 d1 3d 59 d2 ab 3c
       0.09080023 0.05349302 0.10221368 0.020974325
000180 7a e7 8c 3c ad 47 89 3d f1 fa 5d 3d a9 d3 95 bc
       0.01720022 0.06703124 0.054194394 -0.018289404
000190 d5 29 95 3d cc 38 1a 3c ef 1d 2d 3d 37 f4 4b 3c
       0.072833695 0.0094129555 0.042264875 0.012448362
0001a0 cf 57 1d 3d a3 af f8 3b 03 12 c1 3c 9d 83 59 3d
       0.03841382 0.007589297 0.023568159 0.05310403
0001b0 3e af 91 3c 71 0e 8b 3d 81 4c 77 3b c4 7c 83 3d
       0.017783757 0.06789864 0.003773481 0.064202815
0001c0 c2 d6 00 bd 2f 63 16 3d 50 ed da bb be e9 b6 3b
       -0.03145481 0.036715683 -0.006681122 0.0055820635
0001d0 2e f8 9c 3d 68 1a 19 bb fe 0a 96 3d f4 c0 5c 3d
       0.07664524 -0.0023361687 0.07326315 0.053894952
0001e0 96 a1 58 bd 5e 1c 0a 3d 1f fa 6e 3c e5 a9 45 bd
       -0.052888475 0.03371846 0.014586001 -0.048257727
0001f0 83 2b 97 bc a8 75 28 bd f3 4f 30 bd 01 ef 45 3d
       -0.018453365 -0.04112783 -0.043044996 0.048323635
000200 a5 d7 93 3d bf 5c 52 bc d7 a8 fa 3c df 47 1e bc
       0.07218865 -0.012839495 0.030598087 -0.00966069
000210 d8 1e 0f 3d 60 fb 66 3d 56 3c d9 3c d0 be 57 3d
       0.034941524 0.056392074 0.026518028 0.052672207
000220 de 1c d4 bc 6d 3e ac bb 66 ca 1c 3c d7 ab f7 bc
       -0.025892671 -0.005256465 0.00956974 -0.030233307
000230 de 5c 07 bd 9c 41 0c bd b9 aa 0a bd 58 e6 fe 38
       -0.03304755 -0.034242257 -0.03385422 0.00012154569
000240 6b 07 a0 3d 30 39 81 bb 14 84 e4 bc 1c 4f 0b 3d
       0.07813915 -0.003943585 -0.027895011 0.03401099
000250 6e 07 a3 3c 72 3c 91 3c 82 32 35 bd a5 97 8b 3d
       0.019901004 0.017729018 -0.04423762 0.06816033
000260 84 29 20 bb 90 a1 54 3d 92 9e 3f 3d 47 a3 f3 3c
       -0.0024438808 0.05191189 0.046782084 0.029740943
000270 ce 82 29 3d 01 12 5d 3c 10 3c cc 3d ec e0 1c 3b
       0.04138451 0.013493062 0.099723935 0.0023937775
000280 40 e6 a1 3d 93 bd 0d 3e c0 95 96 3d 35 a5 08 3e
       0.07905245 0.13841848 0.07352781 0.13344271
000290 50 09 d3 3d fe d4 13 3d 95 61 06 3e 45 f9 4d bc
       0.103045106 0.036091797 0.13123162 -0.0125716375
0002a0 57 db 86 3c 3d a2 5f 3d c0 73 ff 3d d3 75 0d 3c
       0.016462011 0.05459808 0.124732494 0.0086340485
0002b0 ff af e4 3d ae 13 17 bd 0b e8 bc 3d 89 6a b1 3d
       0.11166381 -0.036884002 0.09223946 0.08662898
0002c0 0e 96 90 bd 5f bb 35 ba 40 10 8f bc 50 99 9b bc
       -0.07059871 -0.00069325225 -0.017463803 -0.018994004
0002d0 fa 3f 2b bd 6f 35 7a bd 35 88 ed 3a a7 76 76 3c
       -0.04180906 -0.061086114 0.0018122258 0.015042937
0002e0 07 7c 88 3d c7 6c 47 bc 5b 8b ae 3d 92 26 1f 3b
       0.06664281 -0.012171931 0.08522674 0.0024284464
0002f0 bd 63 7a 3c c2 1d de 3d 6d e6 0b bd 88 8c cc 3d
       0.0152825685 0.108455196 -0.034155298 0.09987742
000300 c4 a2 02 3d 29 07 71 bd 57 68 18 3d f3 b9 cc 3c
       0.031893507 -0.05884472 0.03720888 0.024991011
000310 f1 e2 39 3b da df dd 3b 92 37 50 3d e8 5b e8 bc
       0.0028364027 0.00677107 0.050834246 -0.028364137
000320 95 db d4 bc 6a a2 82 3d 6d ee aa 3c 3f 34 18 bd
       -0.025983611 0.06378634 0.020865643 -0.0371592
000330 77 64 64 3d 36 c1 72 bd ee 62 43 3d a3 bc 56 bd
       0.055759873 -0.05926629 0.04770177 -0.05242599
000340 13 b2 8b 3d 4a e3 b6 3d 46 cc a5 3d 36 a5 76 3d
       0.06821074 0.08930071 0.08095603 0.06021615
000350 f1 4e 70 3c 7d 65 96 3d c4 57 f2 3c b2 f7 63 3d
       0.014667259 0.07343576 0.029582866 0.055656143
000360 bd c8 19 3b 59 24 03 bd 65 98 b9 3b 96 21 59 bd
       0.0023465597 -0.032017086 0.005663919 -0.053010546
000370 18 05 82 bc 17 c7 9b 3c b3 e6 8b bc 7c 30 3d bd
       -0.01587157 0.019015832 -0.01707778 -0.046188816
000380 41 c4 b5 bb 93 3d 9a 3d 70 3f 46 3c b6 bc 01 bd
       -0.005547077 0.075312756 0.012100086 -0.03167411
000390 8b 1c 2a 3d 26 da 9c 3d 64 da 8a 3d 53 a6 4e 3d
       0.041531127 0.07658796 0.06779936 0.050451588
0003a0 e5 ff 16 3c 0d cd 90 3c 22 29 4c 3d 91 a9 bc 3d
       0.009216283 0.0176759 0.049843915 0.0921203
0003b0 f3 56 58 3d ea 6d 85 3c c3 9c d3 3c ae 47 ab 3d
       0.052817296 0.016287763 0.025831586 0.08363281
0003c0 4d dc 8d 3d b8 6c 76 bc be 7d 78 3d 82 f8 78 bb
       0.06926785 -0.015040569 0.060666792 -0.003798992
0003d0 b8 fd e8 bc eb 35 31 bd 62 ef 7c bd bd c6 e1 3c
       -0.028441295 -0.04326431 -0.06175173 0.027560586
0003e0 cc 92 8e bc e0 64 1a bc f2 2b 8b 3c b9 f8 2e 3c
       -0.017403983 -0.009423465 0.016988728 0.010679417
0003f0 12 b4 2b bd 21 e3 53 bd 36 fc 00 bd d2 0a f4 3c
       -0.041919775 -0.05173028 -0.031490527 0.029790316

bias f4 [48]
000000 69 d4 04 be 77 e6 ba bd c3 4b f5 bd 8a 7a 29 be
       -0.12971653 -0.09125989 -0.11977341 -0.16550651
000010 54 23 49 bd 54 bd 43 bd 69 b2 9d bd 1b f3 42 3e
       -0.049105957 -0.04778798 -0.07700045 0.1903805
000020 8d 21 2a be 5c 1f 9a bd f9 af 10 3e 18 eb 3f 3e
       -0.16614361 -0.075255126 0.14129628 0.18742025
000030 42 95 16 3b b7 77 dd bd 30 58 f2 bd 08 14 53 3e
       0.0022977148 -0.108138494 -0.11833227 0.2061311
000040 a1 ba 88 bd f8 6d 3b 3d c2 ce ce bd 77 30 b8 bd
       -0.06676222 0.04575917 -0.1009803 -0.08993619
000050 5b f1 72 bd 89 8c 46 be 6b 53 ce 3d cc b2 de bd
       -0.059312206 -0.19389547 0.100745045 -0.108739465
000060 7b cf 4b 3e f8 ce 68 3e 47 c7 8a bd 88 1d fd bd
       0.19903366 0.22735202 -0.067762904 -0.12359148
000070 35 40 a8 bd 5d f1 39 3e b5 22 88 bd 5c 83 97 bd
       -0.082153715 0.18158479 -0.06647245 -0.07398102
000080 f7 88 55 3d 6a c0 dd 3d 87 04 85 bd 9c 30 17 be
       0.052132573 0.10827716 -0.06495004 -0.14764637
000090 cc c5 13 be c2 f5 d9 bd 7c be 51 bd 2d d2 94 bd
       -0.14430922 -0.10642578 -0.05120705 -0.0726665
0000a0 b3 f7 20 be 4e 6b 8f bd 10 91 5b bd b6 7b 4e 3e
       -0.1571949 -0.070028886 -0.05360514 0.2016438
0000b0 8f 98 08 be 88 9c 2a be 5b 5d b2 3d a5 4a 8c 3c
       -0.13339446 -0.16661274 0.087092124 0.017125437

weight f4 [64, 48, 3]
000000 9e d4 03 bd 51 db da 3d 5e 3e af 3d 43 10 1a bd
       -0.03218519 0.106863625 0.085568175 -0.037613165
000010 e6 3a cc bd 1a e7 bd bd 54 10 f0 bb f0 a4 46 bd
       -0.099721715 -0.09272595 -0.007326165 -0.04849714
000020 32 37 2f 3d 3b 70 4a 3d 88 3d 11 3e 18 d4 08 3e
       0.042777248 0.049423438 0.14183629 0.13362157
000030 55 dd 48 3d 9d 30 bb bd 2e 90 dd bd 78 e3 f6 bc
       0.049039204 -0.091401316 -0.10818516 -0.030137762
000040 8b af bc 3d 22 e7 f4 3c ad 6d f4 3d 5e 55 e3 3d
       0.0921317 0.029895369 0.119349815 0.11100267
000050 07 4e 83 3d c0 67 8b 3c 7f d1 97 bc 1c 9a 2d 3d
       0.06411367 0.017017245 -0.018532513 0.0423833
000060 c1 c6 9a bc b7 90 4d bb d7 d1 85 3d 98 36 fe 3d
       -0.018893601 -0.0031366774 0.065341644 0.12412757
000070 4d 13 b2 3d 08 02 3a 3d 0e 0b 89 3d ec 97 f9 3b
       0.086950876 0.045412093 0.06691562 0.0076169875
000080 cc 39 6c bc 6d 40 65 bd 79 c4 da 3c 09 40 40 3d
       -0.014418077 -0.055969644 0.026705014 0.04693607
000090 2f bd 83 3c a9 8a 37 3d e7 37 78 3d c6 73 e7 3b
       0.01608142 0.04480997 0.060600188 0.007063362
0000a0 f7 67 85 bc 41 38 be 3d 4b 40 2d 3d 7e e7 5a 3c
       -0.016284926 0.09288073 0.042297643 0.013360856
0000b0 80 87 5f 3d 56 bd 80 bd d1 2e 9a bd d5 46 81 3b
       0.054572582 -0.06286113 -0.07528461 0.0039452114
0000c0 6a f4 3a bd 8a 8d 75 bd 56 c7 85 bd 37 23 35 bd
       -0.045643248 -0.059949435 -0.06532161 -0.044223037
0000d0 8c 5d d7 3c ef 4f b7 bb 11 05 1d 3d 22 d1 35 3c
       0.026289724 -0.0055942456 0.03833491 0.011097224
0000e0 64 8c 4a 3d 6f 7d 90 3d fc 72 b6 3d 04 0a c4 3c
       0.049450293 0.070551746 0.0890865 0.023930557
0000f0 4c 28 6e 3d 9c e7 07 3e 8a 37 ad 3d a6 44 b3 3d
       0.0581439 0.13271946 0.08457859 0.08753328
000100 16 f5 f0 3d af bc 03 bc 2d 4e cb bc 64 7e 0a 3d
       0.117654964 -0.008040591 -0.02481755 0.03381194
000110 0a d1 9f 3d 23 4e 86 3d 57 10 47 3d 94 13 c2 3d
       0.07803543 0.06557872 0.048599567 0.094763905
000120 7e 4e a1 3c 58 f3 0f 3d 05 3b cd bc d5 c2 8f bc
       0.019690748 0.03514418 -0.025052557 -0.017548958
000130 3f 09 cc bd 74 fc 5b bd 8f d4 27 bd 86 9e 8f bd
       -0.09962701 -0.053707555 -0.040974196 -0.07012658
000140 26 25 93 bd 64 56 e0 3d bb b2 de 3c c6 4e e1 bc
       -0.0718482 0.10953978 0.027184835 -0.027503382
000150 a2 89 1c 3d 80 0f 00 3c 57 6e 19 3d c8 2e 41 bc
       0.038217194 0.0078161955 0.037458744 -0.011790939
000160 fe 2c 89 bd 80 42 3b 3d 6f a9 61 3a 46 0c be 3d
       -0.06698035 0.045717716 0.00086083164 0.09279685
000170 bd 6c a7 3b fc 35 92 3d 3b 87 03 3d 64 d6 f5 bc
       0.005109398 0.07139203 0.032111388 -0.030009456
000180 40 a6 6f bd ae 62 38 bd 40 bc ab bd 52 e1 36 3d
       -0.058508158 -0.045015983 -0.08385515 0.044648476
000190 40 50 c9 3d be f5 1a bd 35 bc 90 bc 78 e3 a9 3d
       0.098297596 -0.037832014 -0.01766787 0.08295339
0001a0 b6 81 40 3d ff e2 03 3e ca 64 b5 3d 22 28 0b 3e
       0.046998702 0.12879561 0.088571146 0.13589528
0001b0 d0 6f e1 3c 86 1b 1c 3d 6e 92 ce 3d 1a 72 7f bd
       0.027519137 0.038112186 0.10086523 -0.062364675
0001c0 93 54 8f bd 4b 3d c6 bd 72 a8 3a bc 7a b5 24 3c
       -0.06998553 -0.096796595 -0.0113927 0.010053033
0001d0 27 f2 82 3d 8e ee 9b 3d 27 c5 a2 3c 74 77 9a bb
       0.06393843 0.0761386 0.0198694 -0.004713947
0001e0 65 0a ae 3d de 81 49 3d db a0 04 3d af 62 13 3d
       0.08498076 0.049196117 0.032379966 0.035982784
0001f0 6d ca ff 39 a2 86 26 3b 36 69 8c 3d 6f d9 ac 3d
       0.0004878821 0.0025409837 0.06856005 0.0843991
000200 ad a6 95 bd 4d 90 ac 3b ab 13 7a 3d 5d 31 2a 3d
       -0.073071815 0.0052662254 0.061053913 0.041550983
000210 05 f0 0a 3d cf d2 80 3d 81 2e ce 3d 02 53 3d 3d
       0.033920307 0.062902085 0.10067464 0.04622174
000220 a9 b3 0a 3e cd cb a9 3d 69 3a 84 3d 2f 43 64 bc
       0.13545097 0.08290825 0.06456453 -0.013932033
000230 84 f0 c8 3d 97 66 f0 bd d2 e4 ea bd c1 0a e4 bd
       0.098115 -0.117383175 -0.11469425 -0.11134864
000240 99 23 58 3d e7 3d 08 3d 46 39 0e bd 08 f3 56 3d
       0.052768324 0.03326216 -0.03472259 0.052477866
000250 ae 7d 51 3d e2 da 77 3d e9 2c f9 3d 94 2c 05 3d
       0.051145248 0.060511477 0.12166769 0.032513216
000260 08 b3 86 3d ae 4d c3 bc 08 b8 2d bd 57 7b 17 3d
       0.06577116 -0.023840751 -0.042411834 0.03698286
000270 44 0d d3 bb 66 9e 32 bd e2 0d 13 3d ad 85 c3 3c
       -0.0064407904 -0.04360809 0.03590191 0.023867453
000280 06 2d f9 3c f3 ab 10 3c 29 9b b2 3d 27 be 9e 3d
       0.030416977 0.008830058 0.08721001 0.077511124
000290 88 4b 8d bc 8f 3f 47 bd c2 d4 19 39 1e 89 1e bd
       -0.01724793 -0.0486446 0.00014670476 -0.038704984
0002a0 a6 36 96 bc 78 aa 8f 3d 0b 1e cd bc 9a 9e 70 3d
       -0.018336605 0.07014936 -0.02503874 0.058745004
0002b0 ac e6 70 bd c6 1d 95 bc 0d e5 64 3b 25 e9 3f bd
       -0.058813736 -0.018202674 0.0034926564 -0.046853203
0002c0 d4 10 9f bd 42 1c 8d 3d 21 ff 58 3b a9 b3 39 bd
       -0.077668816 0.068901554 0.0033111053 -0.045337353
0002d0 64 b5 69 bd f0 b5 bc 3a a9 cf 83 bd 09 d9 87 bd
       -0.057057753 0.0014397483 -0.064360924 -0.06633193
0002e0 0a 3d 3f bd 56 ab 9f 3d f1 59 83 3c 7b 46 b6 3d
       -0.04668907 0.077963516 0.016034098 0.08900162
0002f0 68 5c eb 3c 2b a3 9b bd 82 ad bd 3c ae 6b 31 bd
       0.028730586 -0.07599481 0.023154024 -0.043315582
000300 96 a7 82 3d bd 3d 56 bc 00 04 03 3d 9a 3b 07 bd
       0.06379621 -0.013076243 0.031986237 -0.033015825
000310 1b 2a 57 bd 32 26 4a 3d db 9f 37 bb 50 e0 72 3d
       -0.05253039 0.049352832 -0.0028018865 0.059295952
000320 65 56 32 3d fb 36 ed bc 2b 1b 8a bd 98 92 21 bd
       0.043539423 -0.02895688 -0.06743463 -0.039446443
000330 1e 9e 8c 3d ed 67 21 bd c4 60 92 bc 2b 75 b6 3d
       0.06866096 -0.039405752 -0.017868407 0.08909067
000340 34 78 98 3c 03 e3 a4 3d 46 19 2f bd f0 80 23 bd
       0.018612005 0.080511115 -0.042748712 -0.039917886
000350 08 11 39 3d c8 98 11 3d 10 ae 41 bd bf 85 fe 3c
       0.045182258 0.035546094 -0.04728514 0.031069634
000360 2d e3 92 bd 30 e7 54 bd b1 3c 12 3d 62 04 a7 bd
       -0.071722366 -0.05197829 0.03570241 -0.08155133
000370 7e b4 08 bd ee 6f a5 bd 85 38 da 3b 67 e4 e1 3c
       -0.033375256 -0.080779895 0.0066595697 0.027574731
000380 fb a7 f2 3d 8a 33 8c 3d 2a 06 17 3d d5 69 03 3d
       0.11848446 0.06845768 0.036871113 0.03208335
000390 c8 d5 36 3d 76 d4 cd 3d a7 62 b5 3d c9 41 69 bd
       0.04463747 0.10050289 0.08856707 -0.056947503
0003a0 b1 a9 c4 bd 40 a9 50 bd 00 35 dd 3b 8b c2 9b 3c
       -0.096026786 -0.05094266 0.006750703 0.019013664
0003b0 a0 16 c0 3c 6a f4 e0 bc 1a 6e 9a 3c 1c e2 f2 3c
       0.023448288 -0.027460296 0.018851329 0.029648833
0003c0 22 8b 97 3c b9 1f be 3d 2e ce 01 3c 93 78 81 bc
       0.01849896 0.09283394 0.007922692 -0.015804565
0003d0 8a 54 a6 3d 50 98 87 bc 6e 24 ef bc f4 eb 5e 3d
       0.08121593 -0.01655212 -0.029192176 0.05442424
0003e0 66 7c dc 3c 23 1f 33 3d 4f 93 7a bd 74 22 18 bd
       0.026914787 0.043730866 -0.06117564 -0.037142232
0003f0 30 18 c9 3d 64 e9 67 3d a5 35 aa bc 66 f3 bf 3d
       0.098190665 0.056619063 -0.020777533 0.093725964

bias f4 [64]
000000 c0 7d 92 bd d8 31 0c be 2f 0d 24 3e 1c e0 1a bd
       -0.07152891 -0.13690889 0.16020654 -0.037811384
000010 81 1f f7 bc 6c 24 33 3e a2 8d de 3c fd b5 95 bd
       -0.03016639 0.17494363 0.027167145 -0.07310102
000020 75 41 64 3e d6 5a 1a be 19 c5 6d 3c 78 ba 05 be
       0.22290595 -0.15073714 0.014512324 -0.13059413
000030 8a f1 27 be 07 b8 d1 3d d3 f0 cc 3d f6 84 b3 3d
       -0.16400734 0.102401786 0.10006871 0.08765595
000040 ec d6 1a be 9b d2 b9 bd ac c0 ca 3d 7e e6 e6 bc
       -0.15121049 -0.09073373 0.099000305 -0.02818608
000050 92 06 66 bd 73 d9 36 3e 81 ed 17 be 55 9d 62 3c
       -0.05615861 0.17856388 -0.14836694 0.013831456
000060 fb df e3 bd 44 ea db bd 50 a2 a2 bd 26 02 41 be
       -0.11126705 -0.10738042 -0.07941115 -0.18848476
000070 67 bf 07 be 35 0d 0a 3e 92 e1 73 bd 31 85 1a be
       -0.13256608 0.134816 -0.059541292 -0.15089871
000080 be 5a 36 3d db 5f f7 bc 9e ba 77 3e 49 11 24 bd
       0.044520132 -0.030197075 0.24192283 -0.040055547
000090 e3 47 06 be f9 cb b1 bd 46 d0 65 bd de dd 85 3e
       -0.1311336 -0.08681483 -0.05610683 0.26145834
0000a0 49 43 1b 3e e5 15 80 3e 43 6d cb bd 98 ae 59 3e
       0.15162386 0.25016704 -0.099329494 0.21258008
0000b0 82 38 55 3e 6e 38 5f 3e c3 be 35 be 87 1d 6e 3e
       0.20822337 0.2179887 -0.17748551 0.23253451
0000c0 d0 61 c9 bd bd 38 39 3e 4b 82 04 be 44 5e 73 3e
       -0.098331094 0.1808805 -0.12940328 0.23766428
0000d0 55 bc 22 3c c5 c7 60 bc 45 3d 05 be da cf 9d bd
       0.009932597 -0.013719504 -0.13011654 -0.0770566
0000e0 55 e6 82 3d db 48 04 3e 07 6d e1 bd 8d a6 4f be
       0.063915886 0.12918417 -0.110071234 -0.20278378
0000f0 f3 68 19 3e f5 1a 66 bd ea e1 02 be 65 fa 1d be
       0.14981441 -0.056178052 -0.12781492 -0.15427549

weight f4 [64, 64, 3]
000000 3f e1 7b 3b 2b 20 8c bd 03 ee aa bd f5 6f 83 3d
       0.0038433818 -0.06842073 -0.083461784 0.064178385
000010 ae 85 5e 3d 31 16 d8 bc c1 11 e9 3d 28 d1 20 3d
       0.054326706 -0.02637777 0.113803394 0.039261967
000020 24 fa 85 3d 8c fe e1 bc 7b c9 a7 bd 93 59 98 3c
       0.06541851 -0.027587198 -0.08192726 0.0185974
000030 e2 6a ed bd 00 52 ef bd 07 c8 fc bd d1 94 d0 3d
       -0.11592652 -0.11685562 -0.1234284 0.101846345
000040 f5 e7 f4 3d bf f8 89 3d 3f 2b 73 3d e0 3a a0 bc
       0.11958305 0.06736898 0.059367415 -0.019559324
000050 5b af 12 3c 85 b2 e6 bc f1 d3 b8 bd c3 9f 00 be
       0.008952941 -0.028161297 -0.090247996 -0.12560944
000060 9c 70 2c 3e 7f ae f4 3d 82 3d f8 3d ef 30 f7 bd
       0.16839832 0.11947345 0.12121107 -0.1206988
000070 fc bc 02 be a0 b9 ed bd 60 e8 eb 3c 58 7c 2e bd
       -0.12767404 -0.11607671 0.028797328 -0.042599052
000080 ad ff 35 ba 0d 89 5b bd b2 5a 93 3d 99 3e 2b 3b
       -0.0006942701 -0.0535975 0.07195033 0.002612984
000090 9a c6 79 bb a0 4f c1 bd b8 ba 7d bd 7b 6a 49 3d
       -0.003811276 -0.094390154 -0.061945647 0.049173813
0000a0 c6 b6 89 bc c2 ba 46 3d f8 a7 65 bc 78 2b 19 3c
       -0.016810786 0.04851795 -0.014017098 0.009348743
0000b0 8c 58 8c 3d ec 5a 18 bc e6 8b 19 3d cd 56 b1 3c
       0.068528265 -0.009299021 0.037486933 0.021647835
0000c0 eb ff a0 bb 22 30 91 bc f3 43 0a bd 9b 2c 18 3d
       -0.0049133203 -0.017723147 -0.033756208 0.037151914
0000d0 94 fd 7e 3d 5f 24 52 3c a4 05 4c 3d 32 96 c6 bc
       0.06225355 0.012826054 0.049810067 -0.02424154
0000e0 50 f8 04 bd 7d 71 05 3e 3d 4a dd 3d 92 ee 0a 3e
       -0.03246337 0.13031574 0.108051755 0.1356757
0000f0 3d 80 23 bd be 03 7f ba 9f 4e 4e 3d f9 32 2a 3e
       -0.03991722 -0.00097280357 0.050367948 0.16621007
000100 00 71 69 3d e5 a0 14 3e 1d 73 37 3d df 80 53 bd
       0.05699253 0.14514501 0.044787515 -0.051636573
000110 46 db 94 3c d2 78 a1 3a b5 a7 d8 3c 63 c3 d9 3c
       0.018170964 0.0012319332 0.026447156 0.026582425
000120 69 34 28 bc 66 0a 62 bd 86 b3 70 bb bc 49 0f 3c
       -0.010266402 -0.055185698 -0.0036728098 0.008745607
000130 a5 86 32 bd c6 4c 97 bd 1d cc dc bc 18 fd 7a bd
       -0.04358544 -0.0738769 -0.026952798 -0.061276525
000140 68 3a d3 3c dc d4 8e bd d7 5d 3e bd fc 0b 92 bc
       0.025784686 -0.069741935 -0.04647621 -0.01782798
000150 da 5d 0f bd 66 1d 85 bd 15 b5 fe bc 91 4a 10 3d
       -0.035001613 -0.06499748 -0.031092206 0.035227362
000160 e9 94 cf 3d 97 92 c1 3c 24 5c 40 bb 6e 8f 8b bc
       0.10135824 0.02362947 -0.0029351795 -0.017036166
000170 b1 dc 6a 3d e3 4c f4 bc cb 95 a1 bd 81 d3 7a 3a
       0.057339374 -0.029821819 -0.07889899 0.00095682597
000180 06 20 b9 3d c0 c6 6b 3b 94 0c 42 bd a2 52 b1 3b
       0.09039311 0.0035976619 -0.047375277 0.005411462
000190 b7 b2 fc bc cc ac 36 bd 09 d1 c4 3d 48 e9 8a 3d
       -0.030846937 -0.044598386 0.09610183 0.06782776
0001a0 6c 91 c4 3d 4b ab b6 3d 30 62 dc 3c bb c1 93 3d
       0.095980495 0.0891939 0.026902288 0.072146855
0001b0 cf 95 65 bd 81 e8 a7 bd 00 d8 77 3c 14 8b 1f 3a
       -0.05605107 -0.081986435 0.015127182 0.0006086093
0001c0 58 61 3f bd a4 84 bb 3c c6 a9 08 3c c5 7f ed bc
       -0.046723694 0.022890396 0.008341258 -0.02899159
0001d0 42 f2 5f bd 5b fc 94 3d 9a af 29 3c db 66 0e 3d
       -0.054674394 0.072746955 0.010356808 0.03476606
0001e0 b3 b4 08 3e 37 8a ae 3c 7b 58 00 3e 54 2f 13 3e
       0.13350181 0.02130614 0.12533753 0.14373523
0001f0 a7 2f e2 3d 25 ed 99 3c d4 77 a4 3c ba f6 af 3b
       0.11044245 0.018789837 0.02007667 0.0053699883
000200 49 30 29 bc 03 05 9c 3d ac 4d 05 3e 9b 93 fe 3d
       -0.0103264535 0.076181434 0.1301791 0.12430497
000210 24 7f e3 3d 3c ee cb 3d d7 2d b5 3d c3 ee 09 3e
       0.111082345 0.09957549 0.08846634 0.13469987
000220 93 9b f7 3d c9 86 af 3d 4c a9 c9 bd 69 5a 4c bc
       0.1209022 0.0857063 -0.09846744 -0.012472727
000230 f8 ea 52 bd 51 f1 2f 3e ff 49 27 3e 38 e3 db 3d
       -0.051493615 0.17181899 0.16336821 0.10736698
000240 ac 54 3c 3d 14 e5 82 3d 88 ac 43 bc 9f 0e bb 3d
       0.045979187 0.063913494 -0.01194299 0.09133648
000250 62 3b 06 3d 3f cc 7f 3c 3a c4 de bc 30 6e 00 bd
       0.032771476 0.015612661 -0.027193177 -0.031355083
000260 81 4e 20 bd 24 c1 ff 3d be bf 0e 3e 3c f9 86 3d
       -0.039137367 0.124880105 0.13940331 0.065905064
000270 37 ab f2 3b 96 c4 69 3d 20 7b 04 3d d8 85 9c 3d
       0.0074056643 0.057072245 0.032343984 0.07642716
000280 5a c5 05 3d ae bd 22 b7 e1 ab 98 bd 37 19 b1 bc
       0.032658912 -9.700116e-06 -0.07454658 -0.021618469
000290 f8 a4 d9 bd 79 2e bc bc e8 42 11 3d e2 f0 2f bd
       -0.106271684 -0.022971379 0.035464197 -0.042954333
0002a0 aa 59 20 bc 6a 1d c4 3c c4 e1 ad 3a a2 e5 91 3d
       -0.009787003 0.023939807 0.0013266136 0.07123877
0002b0 d5 47 9d bc 44 39 89 3d 1f 79 6d 3d f7 b5 89 3d
       -0.019199291 0.06700376 0.05797684 0.0672416
0002c0 34 c1 65 3c 2a 88 59 ba ce 59 a4 bd 2a 07 a2 3c
       0.014023114 -0.0008298183 -0.080249414 0.019778807
0002d0 96 ac 22 3e d1 1d b6 3d ee 48 19 3e 2e 72 b1 bd
       0.15886149 0.08892406 0.14969227 -0.08664356
0002e0 5b a2 ba bd 3a 23 47 bd 0c d9 cd bb 29 d8 8f bd
       -0.09112998 -0.04861758 -0.0062819775 -0.07023651
0002f0 ab fc d4 bd 2b bd 12 bb 47 f9 50 3c 05 91 fb bd
       -0.10399755 -0.0022390585 0.012754745 -0.1228352
000300 da 67 cf 3c ee a0 8d 3c d1 7e a5 3c d3 aa 98 3c
       0.025318075 0.017288651 0.020202072 0.018636143
000310 98 d1 81 3b 46 32 ff 3c c2 47 08 bd 37 f7 1e bd
       0.003961753 0.031151902 -0.03327156 -0.03880998
000320 06 8a e1 bc 05 02 7c 3a 84 f4 5a 3d e5 18 ea 3a
       -0.027531635 0.0009613338 0.053455845 0.0017860202
000330 05 35 c1 3d ba f1 30 3d 30 60 ae 3c 1b c9 06 bd
       0.09433941 0.04319928 0.0212861 -0.032906633
000340 9c dd 36 bd 5c 0c 24 bd 41 22 30 3d 04 ef 64 3d
       -0.044644937 -0.04005085 0.043001417 0.055892006
000350 29 d9 01 bd dd f6 c3 3d c7 2e d4 ba 9d 61 27 3d
       -0.03170124 0.0956857 -0.0016188257 0.040864576
000360 c7 3f c9 3c a3 a0 32 3d a0 37 41 3d 95 75 fb 3c
       0.024566544 0.043610226 0.04717219 0.030695716
000370 b8 6b 3c 3d 2f 4c 93 3d 10 eb 9e bb a2 ae 75 3c
       0.046001166 0.07192265 -0.004849799 0.014995249
000380 2a 7c fd bc 7c ae e8 bc 07 6c a5 bb 97 73 32 3d
       -0.030942995 -0.028403513 -0.0050482783 0.043567266
000390 b0 db 14 3d f7 4c 5e 3d cd b1 73 3d 56 9d e8 bc
       0.036342323 0.05427262 0.059495736 -0.028395336
0003a0 0b 6d c3 3d 25 4c cc 3c 23 9c 26 3c 98 c3 f5 3c
       0.09542283 0.024938652 0.010169062 0.030000493
0003b0 70 c4 a6 3d 73 7d 25 3b 2f da 55 bd db b5 40 3d
       0.08142936 0.0025251776 -0.05221003 0.04704843
0003c0 28 9f ea 3b 33 29 3a 3c 02 21 2e 3c 7c c7 67 bd
       0.007160086 0.011362362 0.010627987 -0.056586727
0003d0 94 0e 3a b9 17 cf 40 3c 8c b8 ce 3d 7d 06 65 3d
       -0.00017743773 0.011768124 0.10093793 0.05591439
0003e0 25 f6 0a 3d e3 1e 91 bd 2d 54 cd bb 6b 25 b7 bc
       0.033926148 -0.07085969 -0.006266138 -0.02235671
0003f0 b9 79 d5 3c e6 9c 51 bd 85 1d 8a bc 6b 42 87 3d
       0.026059018 -0.05117502 -0.01685978 0.06604465

bias f4 [64]
000000 85 06 2f 3e f6 2b 98 bd 76 12 d8 3d 70 b2 80 3c
       0.17092331 -0.0743026 0.10550396 0.015710086
000010 a3 e5 80 bc a4 af f8 bb 9a c6 bb 3c be 05 24 3e
       -0.0157345 -0.0075892974 0.022921849 0.16017815
000020 08 dc 87 bd e9 0d 0b be cb d6 a2 bd 04 06 0d be
       -0.066337645 -0.13579525 -0.07951125 -0.13771826
000030 26 9e 96 bd 43 43 cb bd f6 9e 9e bd 0d 20 50 3d
       -0.07354383 -0.099249385 -0.07745163 0.050811816
000040 19 4e b9 ba 42 51 b5 bd 93 9e 98 3d 32 51 85 bd
       -0.0014137655 -0.08853389 0.07452121 -0.065096274
000050 c8 64 a9 bd f1 a2 21 3d b2 a9 df bd cd ae 94 3c
       -0.082711756 0.039462034 -0.10921039 0.018149758
000060 38 23 ab bc 3d 99 fc bd 20 05 95 bd 0e 82 d6 bd
       -0.020890817 -0.123339154 -0.07276368 -0.10474025
000070 45 1e 1e 3c 9d cd 06 bd 9d ae a8 bd e0 98 4f bd
       0.0096507715 -0.03291093 -0.0823643 -0.050682902
000080 16 3e 2f be f6 0d 46 bd 31 08 69 bc fa 1d bd 3d
       -0.17113528 -0.048353158 -0.014223144 0.09234233
000090 2e fd 91 bd c3 cf e6 3c 20 03 ef bd 80 70 48 bd
       -0.07128368 0.02817524 -0.11670518 -0.048935413
0000a0 5d 16 30 be 66 ad 2b 3e 0c 9c f4 bd 71 7d 9d bd
       -0.17196031 0.16765365 -0.11943826 -0.07689942
0000b0 54 14 79 3e b3 b5 03 bd 82 69 03 3c 69 44 b1 bb
       0.24324161 -0.032155704 0.0080207605 -0.0054097665
0000c0 a0 00 a3 3b b2 e6 19 be 74 35 a4 bd 48 02 0b 3e
       0.0049744397 -0.1502941 -0.08018008 0.13575089
0000d0 8a 77 d7 bc fc 71 46 bb 12 bd f7 bd 46 ce 92 bd
       -0.026302118 -0.0030280342 -0.12096609 -0.0716825
0000e0 70 c1 86 bd 56 2e 77 bd 48 83 1e 3c ac db bf 3d
       -0.06579864 -0.060346924 0.009674855 0.09368071
0000f0 02 2c aa bd c2 89 ec bc 6b 8f a8 bd 51 12 2c bc
       -0.08309175 -0.028874282 -0.0823048 -0.010502414
